model/keypoint_classifier/converted_model.tflite (tflite, 8000 bytes, 6 tensors)

sequential_3/dense_9/BiasAdd/ReadVariableOp f4 [20]
-0.5821692 -0.6192118 -0.07996228 0.12146838 -0.25841793 -0.36371982 -0.15762939 0.1148174
-0.6641338 -0.7510181 0.2676421 0.06721643 -1.7111691 -0.26699883 -0.8772762 -0.19560786
0.3951426 0.79795516 1.3477732 -1.3557866
00000000: 0a09 15bf aa84 1ebf 44c3 a3bd 6ac4 f83d
00000010: 5b4f 84be 7c39 babe 9969 21be 6325 eb3d
00000020: ac04 2abf b942 40bf 6308 893e c5a8 893d
00000030: 9707 dbbf 12b4 88be 2c95 60bf 6d4d 48be
00000040: 2250 ca3e ca46 4c3f d583 ac3f 6a8a adbf

sequential_3/dense_11/BiasAdd/ReadVariableOp f4 [36]
-0.31812593 1.3943226 1.0025699 1.0534681 0.25625688 -0.6032103 0.88837653 -0.1705369
0.63179004 -0.7548426 0.50720966 -1.306316 -0.66437185 0.2769975 -0.06998209 0.2532273
-0.41192305 -1.0278894 0.35327956 0.19960591 0.15465537 0.6475786 -0.20244105 -0.83617234
-1.357313 0.7777818 -0.8954591 -0.05970855 -1.1712162 -0.5407218 0.12792535 0.7531314
-0.3949132 0.52697366 0.34789878 -2.6369962e-05
00000000: 67e1 a2be 2a79 b23f 3654 803f 0bd8 863f
00000010: 1a34 833e fd6b 1abf a56c 633f 3aa1 2ebe
00000020: febc 213f 5d3d 41bf 7ed8 013f 5d35 a7bf
00000030: 4614 2abf 9ed2 8d3e c552 8fbd 02a7 813e
00000040: 94e7 d2be e191 83bf 0fe1 b43e 7e65 4c3e
00000050: fa5d 1e3e b6c7 253f b54c 4fbe 640f 56bf
00000060: 6fbc adbf b51c 473f cf3c 65bf f490 74bd
00000070: 6aea 95bf be6c 0abf ddfe 023e 38cd 403f
00000080: 1032 cabe bfe7 063f ca1f b23e 1035 ddb7

sequential_3/dense_10/BiasAdd/ReadVariableOp f4 [10]
-0.6871713 -1.124133 1.1442846 0.48597607 0.6445402 -0.59190416 0.49480397 1.2721732
0.17164978 1.4774215
00000000: 75ea 2fbf 97e3 8fbf eb77 923f dbd1 f83e
00000010: 9600 253f 0887 17bf f256 fd3e 92d6 a23f
00000020: f6c4 2f3e 261c bd3f

sequential_3/dense_9/MatMul f4 [20, 42]
-0.10779244 0.16653001 0.026371835 1.3269184 0.009873265 0.39399254 0.066795304 0.31460905
0.020242948 0.18056788 0.3084596 -0.1147361 -0.03228678 -0.006074591 -0.06573596 0.050232083
0.005947132 0.06301029 0.3071103 -0.254816 0.06170954 0.055703875 0.06438206 0.4482542
0.18745646 0.43109408 0.12785129 -0.4334788 -0.040918455 -0.2566346 -0.14208563 -0.3103721
-0.094705425 -0.2753268 -0.101225965 -0.80062014 -0.18299189 -0.95200926 -0.34555948 -1.3932999
-0.4785314 -1.6749511 -0.23179317 -0.116758466 0.6823429 -1.6272874 0.29954636 -0.51146764
0.15393728 -0.24994838 0.08923869 -0.01010649 -0.16099723 -0.2472195 -0.13925564 -0.47944957
-0.07206047 -0.5352519 0.031008136 -0.54177696 -0.52859265 -0.18366744 -0.060517225 0.14175218
0.10590514 0.3919234 0.27392414 0.4038591 -0.6112372 -0.16217679 -0.1547582 0.17350917
0.082156956 0.37625757 0.19836585 0.34977382 -0.60120195 -0.3015605 -0.064222686 -0.047572047
0.01854803 0.22645104 0.10530226 0.27625188 -0.029376477 -0.05085516 -0.43734258 1.9555374
-0.12765746 0.85301155 0.016515782 0.7281333 0.10176729 0.7670982 0.20223773 -0.07846343
0.05070273 -0.029143775 -0.006796346 0.00395103 0.0038010562 0.02910915 0.46143958 -0.1047632
0.015604378 0.12875843 -0.084510304 0.3456982 0.05580169 0.35989535 0.5090963 -0.3754396
-0.005714789 -0.02913573 -0.056846753 -0.051567446 -0.09787673 -0.123509824 0.34087595 -0.5899675
-0.27491185 -0.49581933 -0.5039228 -1.076078 -0.6460071 -1.7873417 0.20151484 0.23915404
1.4699483 -0.5520491 0.92118555 -0.24487868 1.1309537 -0.116384216 1.1978549 -0.2335889
0.058536813 0.19228756 0.13631646 0.13405111 0.1302844 0.11282163 0.116466016 0.07956353
-0.20480351 0.28779882 -0.100282125 0.114999734 -0.15789054 -0.02797812 -0.36396098 -0.037763882
-0.43655708 0.37321237 -0.2551547 0.19103427 -0.315154 0.17315614 -0.4234512 0.09525
-0.7367422 0.43479553 -0.40654117 0.26513255 -0.47657788 0.29332796 -0.58178455 0.27734432
-0.21118692 -0.3077019 0.6480415 -0.2074115 0.66779804 -0.21284285 0.76063186 -0.20937347
0.63053364 -0.1513665 0.9020313 -0.1165655 0.6437165 0.029310731 0.3073495 0.072315015
-0.029967433 0.23113173 1.2303448 -0.10115337 0.9373876 0.19264491 0.63539135 0.6392647
0.47492447 0.72190607 1.2632543 -0.18290891 0.6764642 -0.15029973 0.7616013 0.25178325
1.0076369 0.42614302 0.49347687 -0.4213517 0.44752625 -0.45203707 0.4401427 -0.21476914
0.7879707 -0.25408208 -0.085099235 0.014236569 0.39105585 -1.330338 0.16088215 -0.97434825
0.27287892 -0.7607887 0.15373686 -1.0314734 -0.698827 -0.14863858 0.014092536 0.059353873
0.31211612 0.14722852 0.5001438 0.17133076 -1.0164258 -0.013413244 0.22544226 0.10730575
0.7863351 0.057466824 1.0046918 0.115829445 -0.7556313 0.103350766 0.73088074 0.38613805
1.259378 0.3133897 1.2957476 0.3424936 0.085299015 0.32732788 0.88208944 0.54741526
0.9788046 0.54345864 1.1575778 0.61301076 0.09264091 0.09209949 -1.2012211 0.0067767613
00000000: 48c2 dcbd d886 2a3e bf09 d83c 76d8 a93f
00000010: 7ac3 213c 64b9 c93e facb 883d 7014 a13e
00000020: 8ad4 a53c c9e6 383e 6bee 9d3e c3fa eabd
00000030: 253f 04bd 5d0d c7bb 93a0 86bd 28c0 4d3d
00000040: 29e0 c23b 8a0b 813d 903d 9d3e 3e77 82be
00000050: 25c3 7c3d bf29 643d beda 833d 9381 e53e
00000060: 96f4 3f3e 5db8 dc3e 73eb 023e eff0 ddbe
00000070: 1c9a 27bd 9c65 83be e57e 11be 18e9 9ebe
00000080: ebf4 c1bd a2f7 8cbe 8f4f cfbd 71f5 4cbf
00000090: 3a62 3bbe e1b6 73bf 2ced b0be a757 b2bf
000000a0: 1102 f5be cc64 d6bf 305b 6dbe 101f efbd
000000b0: 06ae 2e3f f44a d0bf 245e 993e 8bef 02bf
000000c0: bca1 1d3e 78f2 7fbe c6c2 b63d b195 25bc
000000d0: 75dc 24be 1c27 7dbe 0899 0ebe 6a7a f5be
000000e0: 7194 93bd 4506 09bf c604 fe3c e5b1 0abf
000000f0: d951 07bf 5113 3cbe e9e0 77bd 7c27 113e
00000100: cbe4 d83d 2faa c83e c93f 8c3e 9fc6 ce3e
00000110: 0b7a 1cbf ac11 26be ef78 1ebe 63ac 313e
00000120: e841 a83d d5a4 c03e 6b20 4b3e 8e15 b33e
00000130: 5fe8 19bf 2366 9abe 2f87 83bd e8da 42bd
00000140: 0af2 973c c8e2 673e b6a8 d73d e370 8d3e
00000150: f0a6 f0bc 804d 50bd 5eeb dfbe 0d4f fa3f
00000160: a3b8 02be f75e 5a3f 1b4c 873c f266 3a3f
00000170: 5e6b d03d 8c60 443f 6817 4f3e 6fb1 a0bd
00000180: aaad 4f3d edbe eebc e2b3 debb a477 813b
00000190: 241b 793b 5076 ee3c cf41 ec3e 178e d6bd
000001a0: 81a9 7f3c 40d9 033e bd13 adbd 5bff b03e
000001b0: 5090 643d 3444 b83e 2354 023f 9f39 c0be
000001c0: 2043 bbbb 0eae eebc 24d8 68bd 6338 53bd
000001d0: 9873 c8bd b8f2 fcbd 4b87 ae3e 1c08 17bf
000001e0: 3fc1 8cbe 08dc fdbe 1601 01bf edbc 89bf
000001f0: b960 25bf 9dc7 e4bf e859 4e3e cce4 743e
00000200: 4427 bc3f 1753 0dbf d1d2 6b3f 7ac1 7abe
00000210: 17c3 903f d95a eebd 4f53 993f ee31 6fbe
00000220: 4cc4 6f3d 08e7 443e 8b96 0b3e b244 093e
00000230: 4669 053e 070f e73d bc85 ee3d 34f2 a23d
00000240: 03b8 51be 5e5a 933e b760 cdbd fb84 eb3d
00000250: 0fae 21be 5f32 e5bc 1859 babe 4dae 1abd
00000260: 6984 dfbe b115 bf3e a3a3 82be 7d9e 433e
00000270: dd5b a1be d84f 313e 98ce d8be 6f12 c33d
00000280: 239b 3cbf 859d de3e 2a26 d0be 74bf 873e
00000290: 0402 f4be 152f 963e d5ef 14bf 1300 8e3e
000002a0: 6241 58be 1a8b 9dbe 0ce6 253f ae63 54be
000002b0: d0f4 2a3f 7af3 59be c5b8 423f 0066 56be
000002c0: a76a 213f d2ff 1abe 86eb 663f e5b9 eebd
000002d0: 9bca 243f 0f1d f03c ea5c 9d3e e519 943d
000002e0: 437e f5bc ccad 6c3e f07b 9d3f 8029 cfbd
000002f0: a2f8 6f3f b544 453e 02a9 223f daa6 233f
00000300: 4d29 f33e d6ce 383f 51b2 a13f 794c 3bbe
00000310: c22c 2d3f 2ce8 19be 4ef8 423f bce9 803e
00000320: 3ffa 803f 6b2f da3e 00a9 fc3e 69bb d7be
00000330: 2922 e53e 6771 e7be 625a e13e 71ec 5bbe
00000340: 73b8 493f 0c17 82be 8248 aebd 8040 693c
00000350: 7938 c83e 8448 aabf 4abe 243e e36e 79bf
00000360: c9b6 8b3e 0cc3 42bf 326d 1d3e 5207 84bf
00000370: 54e6 32bf b634 18be 61e4 663c 0c1d 733d
00000380: afcd 9f3e 13c3 163e 6d09 003f 5571 2f3e
00000390: 3e1a 82bf 39c3 5bbc 56da 663e 1ec3 db3d
000003a0: 424d 493f 5562 6b3d be99 803f fd37 ed3d
000003b0: 0e71 41bf 91a9 d33d 001b 3b3f e3b3 c53e
000003c0: 4c33 a13f 9d74 a03e 0fdb a53f 525b af3e
000003d0: 40b1 ae3d 8597 a73e 9dd0 613f 6823 0c3f
000003e0: f092 7a3f 1b20 0b3f 822b 943f 46ee 1c3f
000003f0: 84ba bd3d a89e bc3d 9dc1 99bf 980f de3b

sequential_3/dense_10/MatMul f4 [10, 20]
0.3844671 -0.28654873 0.6751114 -1.0931287 0.3682393 0.20182243 0.37692142 0.36239284
0.40283152 0.3032273 1.5645324 -1.3518102 0.045606 0.015376542 0.37554577 -0.29990962
0.4645113 0.609373 2.0778337 0.038639173 0.9707264 -0.07025833 1.2357839 0.42132357
0.19299091 0.53406286 -0.17177169 0.3653231 0.14827454 0.14989287 0.41986516 0.34867668
0.45407462 0.17604177 0.17989554 1.2211282 0.11670147 -0.0665788 1.4063387 -0.40119913
0.03746484 0.91114444 -0.45533857 1.0041308 0.27147976 0.9614893 0.17826422 0.442625
-0.40467992 -0.3163808 -0.037695114 1.031194 0.30882174 0.5151229 -0.42764935 -0.040393174
-0.65793794 -1.1706111 -1.4047048 0.28035113 0.6489245 -0.11126214 0.9779934 1.1140501
0.035891194 -0.2734294 -0.24769822 -0.18437962 -0.14546502 -0.06473304 1.2462777 1.153461
0.48749986 0.24337874 -0.28245214 0.6455791 -1.2524514 -1.2956114 0.32054082 0.5597172
-0.030829275 0.10434097 0.0393679 1.5955554 0.50326365 -0.071919754 0.32984838 0.7468301
0.3037816 0.24291463 0.5683756 1.4850318 -0.077397496 0.29726422 0.3335831 -0.084539294
0.43310252 1.4565008 1.2676235 -0.66041046 -0.077581294 -0.2220507 -0.21116823 -0.38595694
0.7327783 1.2373611 0.3089239 1.470976 0.43487033 0.35333005 0.14786847 -0.27511847
0.36389315 0.6228111 0.43487024 0.45361212 0.39398226 0.54191285 1.6225381 0.59148425
0.3752495 0.18995349 0.5581668 -0.19359852 0.93683106 -0.08823609 -0.26881078 0.08604737
-1.7416874 -1.3710552 -0.43388876 0.016197668 0.14687443 0.6566689 -0.8323316 0.00779811
0.11700235 0.243263 0.24043797 0.030546524 1.1666412 -0.08742982 1.1864277 -0.13867246
0.12928297 -0.22234668 0.011119177 0.08571771 0.041363034 0.021163514 0.19397612 -0.007425297
1.599118 0.118381165 0.038734574 1.7839313 0.043125547 -1.444898 -0.4973624 1.7460703
0.4620207 0.75826335 0.41577712 0.39003026 0.089154996 0.027734462 -0.013694561 0.087481506
1.242385 1.0060877 -0.15845652 0.43294135 0.28204694 -2.4777145 1.2267809 -0.05122073
1.1573868 0.6288796 -1.5224342 0.088656574 0.58674467 0.63125736 0.74411005 -0.27078837
0.6402239 0.27262104 1.9239637 0.18607494 0.15946846 0.13856155 0.6706544 -0.39875147
0.3799806 0.43583292 0.16117693 -1.2630126 0.13876612 -0.7775509 -0.57674927 0.04206608
00000000: dfd8 c43e 84b6 92be 1ad4 2c3f a4eb 8bbf
00000010: dd89 bc3e 8aaa 4e3e d8fb c03e 8e8b b93e
00000020: ef3f ce3e 9c40 9b3e 9942 c83f 1e08 adbf
00000030: 5bcd 3a3d e4ed 7b3c 8947 c03e c18d 99be
00000040: 6dd4 ed3e deff 1b3f 3afb 0440 1c44 1e3d
00000050: 8681 783f 99e3 8fbd 2b2e 9e3f b9b7 d73e
00000060: 699f 453e 58b8 083f ebe4 2fbe a10b bb3e
00000070: 48d5 173e 847d 193e 91f8 d63e c085 b23e
00000080: 787c e83e 4b44 343e 8936 383e ee4d 9c3f
00000090: 2e01 ef3d 775a 88bd e802 b43f f969 cdbe
000000a0: bb74 193d c340 693f 2322 e9be 5c87 803f
000000b0: 65ff 8a3e 2a24 763f e58a 363e be9f e23e
000000c0: 3532 cfbe aafc a1be 3166 1abd 2afe 833f
000000d0: e21d 9e3e 18df 033f dbf4 dabe 5073 25bd
000000e0: 9f6e 28bf 96d6 95bf 5ecd b3bf 2f8a 8f3e
000000f0: eb1f 263f 68dd e3bd c75d 7a3f 3299 8e3f
00000100: a502 133d f0fe 8bbe 9aa4 7dbe 03ce 3cbe
00000110: c8f4 14be c292 84bd 0786 9f3f 9ca4 933f
00000120: 9599 f93e 4738 793e 919d 90be ac44 253f
00000130: 5450 a0bf 98d6 a5bf ed1d a43e a049 0f3f
00000140: ad8d fcbc b8b0 d53d 3c40 213d 293b cc3f
00000150: e3d5 003f aa4a 93bd e3e1 a83e 4230 3f3f
00000160: 4389 9b3e 9dbe 783e 1081 113f 8615 be3f
00000170: 9482 9ebd 0433 983e 67cb aa3e f022 adbd
00000180: 9dbf dd3e 9e6e ba3f 7d41 a23f a910 29bf
00000190: f1e2 9ebd 4261 63be 7c3c 58be 269c c5be
000001a0: 5c97 3b3f d961 9e3f 462b 9e3e f148 bc3f
000001b0: 53a7 de3e ade7 b43e d56a 173e 54dc 8cbe
000001c0: 3450 ba3e 8c70 1f3f 50a7 de3e d93f e83e
000001d0: 0bb8 c93e cdba 0a3f 54af cf3f 836b 173f
000001e0: b420 c03e 2b83 423e 05e4 0e3f b13e 46be
000001f0: 29d4 6f3f 20b5 b4bd 91a1 89be 9b39 b03d
00000200: 9def debf bd7e afbf ab26 debe f9b0 843c
00000210: 4066 163e 741b 283f af13 55bf 4a87 ff3b
00000220: ee9e ef3d f019 793e 5f35 763e b43c fa3c
00000230: 8054 953f 680e b3bd dddc 973f 2700 0ebe
00000240: c162 043e d9ae 63be 352d 363c c48c af3d
00000250: 496c 293d 1b5f ad3c ada1 463e e84f f3bb
00000260: e6af cc3f d371 f23d 25a8 1e3d dc57 e43f
00000270: 6aa4 303d 6bf2 b8bf 49a6 febe 3b7f df3f
00000280: fa8d ec3e 8c1d 423f bde0 d43e 0cb2 c73e
00000290: e596 b63d 6233 e33c 275f 60bc 8129 b33d
000002a0: 7906 9f3f 7bc7 803f 6d42 22be 7daa dd3e
000002b0: 7568 903e e092 1ec0 2807 9d3f d4cc 51bd
000002c0: 4025 943f 41fe 203f 20df c2bf 9491 b53d
000002d0: e634 163f 159a 213f ff7d 3e3f c6a4 8abe
000002e0: b7e5 233f fc94 8b3e 7144 f63f 6e8a 3e3e
000002f0: b34b 233e 14e3 0d3e 02b0 2b3f 2729 ccbe
00000300: d18c c23e 7e25 df3e 910b 253e 66aa a1bf
00000310: b518 0e3e 930d 47bf d7a5 13bf 7b4d 2c3d

sequential_3/dense_11/MatMul f4 [36, 10]
-0.6447602 -0.34602693 -1.0999737 -0.27421674 -0.61763245 -0.48068288 -0.4216449 -0.47229707
-0.7349285 -0.55982435 -0.46208122 -0.8999738 0.6323375 0.32046333 -0.36729994 -2.2508008
-0.56917703 0.080034055 -0.92384905 0.53995836 -0.57051665 -0.4364391 0.25759956 -0.22203724
-0.4806211 -0.37916648 -0.2147556 0.43923593 -0.93181145 0.21537776 -0.8121239 -0.10423659
-0.26607832 0.114886515 -0.40251786 0.104075745 0.04788138 0.37810588 -0.5732503 -0.12094337
-0.24293932 -0.07891258 -0.5134885 0.36839956 -0.3483664 -0.18570612 0.25480008 0.422616
-0.82839406 -0.16589911 -0.6286226 -0.050344173 -0.19199072 1.0132127 -0.18024006 -0.5989891
-0.7704067 0.3238118 -0.8358432 0.0053933407 0.13528049 0.26152873 -0.24966179 0.31355304
-0.15146565 -0.14298882 0.31323594 -0.038314316 -0.3037313 -0.1510498 -0.6741073 -0.46323535
0.1472086 -0.8893739 -0.3989486 0.48502487 -0.049646724 0.08935534 0.14446855 0.4075269
-0.23548 -1.0309724 0.67705977 0.3636367 0.08001179 -0.7809799 -1.3851693 0.349127
-1.0539862 0.27274272 0.22926252 0.6381642 -0.2678168 0.34910265 -0.17152484 0.3474894
0.30176115 -0.25482047 -0.12160196 -0.49954104 0.4145341 -0.25132203 0.74181515 -0.5691494
0.46720275 -0.14882591 0.16761915 -1.8417387 -0.3592903 -0.28825882 0.19270906 0.2944014
-0.9816828 -0.11793944 -0.8090205 0.19243014 0.30224758 0.054395944 0.2107892 -0.30943418
0.044859353 0.07677412 0.39959008 -0.17297144 0.17692979 -0.09288442 -0.26845357 -0.42976904
-0.009006542 0.4231584 -0.22252947 -0.74421746 -0.0691105 -0.8636084 -0.028520403 -0.063334145
-0.38438055 -0.8080958 0.237632 0.41038692 0.36036596 0.029628877 -0.3844046 -0.24552281
-0.20857364 -0.41325668 -0.11838298 -0.61128414 0.12581465 0.41439518 -0.0051281243 0.38579157
-0.53775966 0.017361382 0.43570107 0.27743262 0.15125027 -0.5256293 -0.0500698 -0.67666936
-0.35825515 -0.23709916 -0.017069425 -0.07798857 0.1546764 -0.0505447 0.29358962 -1.9911608
0.33168253 0.13231815 -0.80071676 -0.082695186 0.19820054 0.71300626 -0.65235204 -0.9231002
0.28392667 0.32831806 -0.8856946 -0.22404487 -0.18923658 -0.7474151 0.30158013 -0.3274411
0.12047087 0.3583662 -0.07191517 -1.0393467 0.094269045 0.33088613 -0.77169126 -0.74955964
0.19974801 -0.30627948 0.23329878 -0.6152079 -0.79174244 -1.1295917 0.594751 -0.36465767
-0.17559242 -0.35308453 -0.48498842 -0.9618158 -0.2916472 -0.32917872 -0.5408535 -0.04673819
0.19384824 0.44598514 -0.18334818 -0.16451739 -0.060188398 0.2604537 0.32925853 -1.2480428
0.20590077 -0.21700187 -0.54247546 0.62676543 -0.41875675 0.11111049 -0.02260031 -0.13289201
0.17987268 -0.39921325 0.19243626 -1.1480243 0.5027144 -0.9203003 0.7398906 -0.7897909
0.21456517 -0.30093616 -0.5185297 0.5742106 -0.114390805 -0.14086989 -0.846441 0.12787291
0.31913173 0.2937226 0.11837848 -0.053548146 -0.37052253 0.37491813 0.14670914 -0.032304812
0.0005985949 -0.20748962 -0.8214616 -0.17498438 0.87887114 -0.15631005 -1.2183144 -0.7225553
00000000: 010f 25bf 712a b1be f0cb 8cbf 2366 8cbe
00000010: 291d 1ebf 111c f6be d7e1 d7be ecd0 f1be
00000020: 4624 3cbf a650 0fbf e995 ecbe af64 66bf
00000030: dfe0 213f c513 a43e bd0e bcbe 1f0d 10c0
00000040: 96b5 11bf e5e8 a33d 5f81 6cbf b63a 0a3f
00000050: 610d 12bf f274 dfbe 17e4 833e bb5d 63be
00000060: f813 f6be 1c22 c2be e4e8 5bbe 88e3 e03e
00000070: 328b 6ebf fd8b 5c3e 5ae7 4fbf fe79 d5bd
00000080: 6b3b 88be 9f49 eb3d d216 cebe aa25 d53d
00000090: 441f 443d 1897 c13e 88c0 12bf 28b1 f7bd
000000a0: 16c5 78be eb9c a1bd fb73 03bf de9e bc3e
000000b0: 155d b2be bf29 3ebe 2875 823e 2061 d83e
000000c0: a211 54bf 75e1 29be 69ed 20bf b135 4ebd
000000d0: 3799 44be f4b0 813f da90 38be 5a57 19bf
000000e0: 6039 45bf a9ca a53e d2f9 55bf 9fba b03b
000000f0: f886 0a3e 18e7 853e 57a7 7fbe 068a a03e
00000100: d019 1bbe a96b 12be 7660 a03e 79ef 1cbd
00000110: ab82 9bbe ccac 1abe 4c92 2cbf 2f2d edbe
00000120: dabd 163e 02ae 63bf fe42 ccbe 2e55 f83e
00000130: 5d5a 4bbd efff b63d 90ef 133e 5ea7 d03e
00000140: ab21 71be e7f6 83bf ca53 2d3f 972e ba3e
00000150: 39dd a33d 4cee 47bf 3a4d b1bf c6c0 b23e
00000160: 05e9 86bf efa4 8b3e cbc3 6a3e bb5e 233f
00000170: 491f 89be 95bd b23e 35a4 2fbe 21ea b13e
00000180: 7080 9a3e d477 82be 730a f9bd d8c3 ffbe
00000190: d03d d43e 48ad 80be 99e7 3d3f c6b3 11bf
000001a0: 3335 ef3e d265 18be 5ba4 2b3e 18be ebbf
000001b0: e6f4 b7be a996 93be 8655 453e c8bb 963e
000001c0: 904f 7bbf 3c8a f1bd f81b 4fbf 680c 453e
000001d0: 32c0 9a3e 48ce 5e3d 20d9 573e 286e 9ebe
000001e0: 71be 373d c03b 9d3d 1297 cc3e 6d1f 31be
000001f0: 152d 353e 303a bebd bf72 89be b00a dcbe
00000200: 2d90 13bc 38a8 d83e c4de 63be 0985 3ebf
00000210: ce89 8dbd 7115 5dbf 9fa3 e9bc 55b5 81bd
00000220: 87cd c4be 5edf 4ebf ce55 733e 3c1e d23e
00000230: e381 b83e 42b8 f23c aed0 c4be 556a 7bbe
00000240: 5494 55be 6196 d3be c772 f2bd 1e7d 1cbf
00000250: 8ed5 003e 9b2b d43e d309 a8bb 7986 c53e
00000260: 9eaa 09bf 7539 8e3c 3614 df3e a60b 8e3e
00000270: 5ae1 1a3e a48f 06bf fe15 4dbd 343a 2dbf
00000280: 386d b7be 1fca 72be 2ed5 8bbc 79b8 9fbd
00000290: 7d63 1e3e f607 4fbd 6151 963e 5bde febf
000002a0: 4bd2 a93e 697e 073e c6fb 4cbf 185c a9bd
000002b0: 15f5 4a3e 9487 363f 8b00 27bf 4b50 6cbf
000002c0: d65e 913e 4e19 a83e e2bc 62bf 056c 65be
000002d0: 3cc7 41be 9956 3fbf b668 9a3e 5ca6 a7be
000002e0: 6eb9 f63d c67b b73e 4348 93bd 5009 85bf
000002f0: 2110 c13d e869 a93e 8f8d 45bf 24e3 3fbf
00000300: be8a 4c3e aad0 9cbe e0e5 6e3e 447e 1dbf
00000310: a2af 4abf 7696 90bf 9a41 183f 69b4 babe
00000320: 80ce 33be 7fc7 b4be 6750 f8be 8f39 76bf
00000330: c852 95be 1d8a a8be 6075 0abf 8b70 3fbd
00000340: 2780 463e 2a58 e43e a0bf 3bbe 3f77 28be
00000350: 1c88 76bd 305a 853e 9394 a83e debf 9fbf
00000360: a7d7 523e bd35 5ebe acdf 0abf b373 203f
00000370: 4967 d6be e68d e33d 4924 b9bc d814 08be
00000380: 8b30 383e ae65 ccbe 030e 453e 76f2 92bf
00000390: e4b1 003f cd98 6bbf 7869 3d3f bd2f 4abf
000003a0: f9b6 5b3e 4e14 9abe 5dbe 04bf 77ff 123f
000003b0: ba45 eabd 3240 10be 5bb0 58bf 1ef1 023e
000003c0: 3c65 a33e cf62 963e 6b70 f23d 4d55 5bbd
000003d0: 21b5 bdbe 45f5 bf3e ec3a 163e 0d52 04bd
000003e0: 06eb 1c3a 2978 54be 4f4b 52bf 1b2f 33be
000003f0: b3fd 603f be0f 20be baf1 9bbf 62f9 38bf
